…
    "    layers.Dense(n_classes, activation='sigmoid'),\n",
    "])\n",
    "\n",
    "model.build(input_shape=input_shape)"
   ]
  },
  {
   "cell_type": "code",
   "execution_count": 28,
   "id": "0cd68d15",
   "metadata": {},
   "outputs": [
    {
     "name": "stdout",
     "output_type": "stream",
     "text": [
      "Model: \"sequential_3\"\n",
      "_________________________________________________________________\n",
      " Layer (type)                Output Shape              Param #   \n",
      "=================================================================\n",
      " sequential (Sequential)     (None, 256, 256, 3)       0         \n",
      "                                                                 \n",
      " conv2d_6 (Conv2D)           (8, 254, 254, 32)         896       \n",
      "                                                                 \n",
      " max_pooling2d_6 (MaxPoolin  (8, 127, 127, 32)         0         \n",
      " g2D)                                                            \n",
      "                                                                 \n",
      " conv2d_7 (Conv2D)           (8, 125, 125, 64)         18496     \n",
      "                                                                 \n",
      " max_pooling2d_7 (MaxPoolin  (8, 62, 62, 64)           0         \n",
      " g2D)                                                            \n",
      "                                                                 \n",
      " conv2d_8 (Conv2D)           (8, 60, 60, 64)           36928     \n",
      "                                                                 \n",
      " max_pooling2d_8 (MaxPoolin  (8, 30, 30, 64)           0         \n",
      " g2D)                                                            \n",
      "                                                                 \n",
      " conv2d_9 (Conv2D)           (8, 28, 28, 64)           36928     \n",
      "                                                                 \n",
      " max_pooling2d_9 (MaxPoolin  (8, 14, 14, 64)           0         \n",
      " g2D)                                                            \n",
      "                                                                 \n",
      " conv2d_10 (Conv2D)          (8, 12, 12, 64)           36928     \n",
      "                                                                 \n",
      " max_pooling2d_10 (MaxPooli  (8, 6, 6, 64)             0         \n",
      " ng2D)                                                           \n",
      "                                                                 \n",
      " conv2d_11 (Conv2D)          (8, 4, 4, 64)             36928     \n",
      "                                                                 \n",
      " max_pooling2d_11 (MaxPooli  (8, 2, 2, 64)             0         \n",
      " ng2D)                                                           \n",
      "                                                                 \n",
      " flatten_1 (Flatten)         (8, 256)                  0         \n",
      "                                                                 \n",
      " dense_2 (Dense)             (8, 64)                   16448     \n",
      "                                                                 \n",
      " dense_3 (Dense)             (8, 1)                    65        \n",
      "                                                                 \n",
      "=================================================================\n",
      "Total params: 183617 (717.25 KB)\n",
      "Trainable params: 183617 (717.25 KB)\n",
      "Non-trainable params: 0 (0.00 Byte)\n",
      "_________________________________________________________________\n"
     ]
    }
   ],
…
